  : OPTForCausalLM(
  (model): OPTModel(
    (decoder): OPTDecoder(
      (embed_tokens): Embedding(50272, 2048, padding_idx=1)
      (embed_positions): OPTLearnedPositionalEmbedding(2050, 2048)
      (final_layer_norm): LayerNorm((2048,), eps=1e-05, elementwise_affine=True)
      (layers): ModuleList(
        (0-23): 24 x OPTDecoderLayer(
          (self_attn): OPTAttention(
            (k_proj): Linear(in_features=2048, out_features=2048, bias=True)
            (v_proj): Linear(in_features=2048, out_features=2048, bias=True)
            (q_proj): Linear(in_features=2048, out_features=2048, bias=True)
            (out_proj): Linear(in_features=2048, out_features=2048, bias=True)
          )
          (activation_fn): ReLU()
          (self_attn_layer_norm): LayerNorm((2048,), eps=1e-05, elementwise_affine=True)
          (fc1): Linear(in_features=2048, out_features=8192, bias=True)
          (fc2): Linear(in_features=8192, out_features=2048, bias=True)
          (final_layer_norm): LayerNorm((2048,), eps=1e-05, elementwise_affine=True)
        )
      )
    )
  )
  (lm_head): Linear(in_features=2048, out_features=50272, bias=False)
)
  model: OPTModel(
  (decoder): OPTDecoder(
    (embed_tokens): Embedding(50272, 2048, padding_idx=1)
    (embed_positions): OPTLearnedPositionalEmbedding(2050, 2048)
    (final_layer_norm): LayerNorm((2048,), eps=1e-05, elementwise_affine=True)
    (layers): ModuleList(
      (0-23): 24 x OPTDecoderLayer(
        (self_attn): OPTAttention(
          (k_proj): Linear(in_features=2048, out_features=2048, bias=True)
          (v_proj): Linear(in_features=2048, out_features=2048, bias=True)
          (q_proj): Linear(in_features=2048, out_features=2048, bias=True)
          (out_proj): Linear(in_features=2048, out_features=2048, bias=True)
        )
        (activation_fn): ReLU()
        (self_attn_layer_norm): LayerNorm((2048,), eps=1e-05, elementwise_affine=True)
        (fc1): Linear(in_features=2048, out_features=8192, bias=True)
        (fc2): Linear(in_features=8192, out_features=2048, bias=True)
        (final_layer_norm): LayerNorm((2048,), eps=1e-05, elementwise_affine=True)
      )
    )
  )
)
  model.decoder: OPTDecoder(
  (embed_tokens): Embedding(50272, 2048, padding_idx=1)
  (embed_positions): OPTLearnedPositionalEmbedding(2050, 2048)
  (final_layer_norm): LayerNorm((2048,), eps=1e-05, elementwise_affine=True)
  (layers): ModuleList(
    (0-23): 24 x OPTDecoderLayer(
      (self_attn): OPTAttention(
        (k_proj): Linear(in_features=2048, out_features=2048, bias=True)
        (v_proj): Linear(in_features=2048, out_features=2048, bias=True)
        (q_proj): Linear(in_features=2048, out_features=2048, bias=True)
        (out_proj): Linear(in_features=2048, out_features=2048, bias=True)
      )
      (activation_fn): ReLU()
      (self_attn_layer_norm): LayerNorm((2048,), eps=1e-05, elementwise_affine=True)
      (fc1): Linear(in_features=2048, out_features=8192, bias=True)
      (fc2): Linear(in_features=8192, out_features=2048, bias=True)
      (final_layer_norm): LayerNorm((2048,), eps=1e-05, elementwise_affine=True)
    )
  )
)
  model.decoder.embed_tokens: Embedding(50272, 2048, padding_idx=1)
  model.decoder.embed_positions: OPTLearnedPositionalEmbedding(2050, 2048)
  model.decoder.final_layer_norm: LayerNorm((2048,), eps=1e-05, elementwise_affine=True)
  model.decoder.layers: ModuleList(
  (0-23): 24 x OPTDecoderLayer(
    (self_attn): OPTAttention(
      (k_proj): Linear(in_features=2048, out_features=2048, bias=True)
      (v_proj): Linear(in_features=2048, out_features=2048, bias=True)
      (q_proj): Linear(in_features=2048, out_features=2048, bias=True)
      (out_proj): Linear(in_features=2048, out_features=2048, bias=True)
    )
    (activation_fn): ReLU()
    (self_attn_layer_norm): LayerNorm((2048,), eps=1e-05, elementwise_affine=True)
    (fc1): Linear(in_features=2048, out_features=8192, bias=True)
    (fc2): Linear(in_features=8192, out_features=2048, bias=True)
    (final_layer_norm): LayerNorm((2048,), eps=1e-05, elementwise_affine=True)
  )
)
  model.decoder.layers.0: OPTDecoderLayer(
  (self_attn): OPTAttention(
    (k_proj): Linear(in_features=2048, out_features=2048, bias=True)
    (v_proj): Linear(in_features=2048, out_features=2048, bias=True)
    (q_proj): Linear(in_features=2048, out_features=2048, bias=True)
    (out_proj): Linear(in_features=2048, out_features=2048, bias=True)
  )
  (activation_fn): ReLU()
  (self_attn_layer_norm): LayerNorm((2048,), eps=1e-05, elementwise_affine=True)
  (fc1): Linear(in_features=2048, out_features=8192, bias=True)
  (fc2): Linear(in_features=8192, out_features=2048, bias=True)
  (final_layer_norm): LayerNorm((2048,), eps=1e-05, elementwise_affine=True)
)
  model.decoder.layers.0.self_attn: OPTAttention(
  (k_proj): Linear(in_features=2048, out_features=2048, bias=True)
  (v_proj): Linear(in_features=2048, out_features=2048, bias=True)
  (q_proj): Linear(in_features=2048, out_features=2048, bias=True)
  (out_proj): Linear(in_features=2048, out_features=2048, bias=True)
)
  model.decoder.layers.0.self_attn.k_proj: Linear(in_features=2048, out_features=2048, bias=True)
  model.decoder.layers.0.self_attn.v_proj: Linear(in_features=2048, out_features=2048, bias=True)
  model.decoder.layers.0.self_attn.q_proj: Linear(in_features=2048, out_features=2048, bias=True)
  model.decoder.layers.0.self_attn.out_proj: Linear(in_features=2048, out_features=2048, bias=True)
  model.decoder.layers.0.activation_fn: ReLU()
  model.decoder.layers.0.self_attn_layer_norm: LayerNorm((2048,), eps=1e-05, elementwise_affine=True)
  model.decoder.layers.0.fc1: Linear(in_features=2048, out_features=8192, bias=True)
  model.decoder.layers.0.fc2: Linear(in_features=8192, out_features=2048, bias=True)
  model.decoder.layers.0.final_layer_norm: LayerNorm((2048,), eps=1e-05, elementwise_affine=True)
  model.decoder.layers.1: OPTDecoderLayer(
  (self_attn): OPTAttention(
    (k_proj): Linear(in_features=2048, out_features=2048, bias=True)
    (v_proj): Linear(in_features=2048, out_features=2048, bias=True)
    (q_proj): Linear(in_features=2048, out_features=2048, bias=True)
    (out_proj): Linear(in_features=2048, out_features=2048, bias=True)
  )
  (activation_fn): ReLU()
  (self_attn_layer_norm): LayerNorm((2048,), eps=1e-05, elementwise_affine=True)
  (fc1): Linear(in_features=2048, out_features=8192, bias=True)
  (fc2): Linear(in_features=8192, out_features=2048, bias=True)
  (final_layer_norm): LayerNorm((2048,), eps=1e-05, elementwise_affine=True)
)
  model.decoder.layers.1.self_attn: OPTAttention(
  (k_proj): Linear(in_features=2048, out_features=2048, bias=True)
  (v_proj): Linear(in_features=2048, out_features=2048, bias=True)
  (q_proj): Linear(in_features=2048, out_features=2048, bias=True)
  (out_proj): Linear(in_features=2048, out_features=2048, bias=True)
)
  model.decoder.layers.1.self_attn.k_proj: Linear(in_features=2048, out_features=2048, bias=True)
  model.decoder.layers.1.self_attn.v_proj: Linear(in_features=2048, out_features=2048, bias=True)
  model.decoder.layers.1.self_attn.q_proj: Linear(in_features=2048, out_features=2048, bias=True)
  model.decoder.layers.1.self_attn.out_proj: Linear(in_features=2048, out_features=2048, bias=True)
…
